…
To enable the following instructions: AVX2 AVX_VNNI FMA, in other operations, rebuild TensorFlow with the appropriate compiler flags.
WARNING:tensorflow:From C:\Users\lokes\anaconda3\Lib\site-packages\keras\src\backend\tensorflow\core.py:219: The name tf.placeholder is deprecated. Please use tf.compat.v1.placeholder instead.

Training VAE with Normal prior distribution...
Model: "encoder"
+--------------------------------------------------------------------------+
| Layer (type)        | Output Shape      |    Param # | Connected to      |
|---------------------+-------------------+------------+-------------------|
| input_layer         | (None, 1536)      |          0 | -                 |
| (InputLayer)        |                   |            |                   |
|---------------------+-------------------+------------+-------------------|
| reshape (Reshape)   | (None, 1536, 1)   |          0 | input_layer[0][0] |
|---------------------+-------------------+------------+-------------------|
| conv1d (Conv1D)     | (None, 512, 20)   |        120 | reshape[0][0]     |
|---------------------+-------------------+------------+-------------------|
| conv1d_1 (Conv1D)   | (None, 256, 20)   |      1,220 | conv1d[0][0]      |
|---------------------+-------------------+------------+-------------------|
| conv1d_2 (Conv1D)   | (None, 128, 20)   |      1,220 | conv1d_1[0][0]    |
|---------------------+-------------------+------------+-------------------|
| conv1d_3 (Conv1D)   | (None, 64, 20)    |      1,220 | conv1d_2[0][0]    |
|---------------------+-------------------+------------+-------------------|
| conv1d_4 (Conv1D)   | (None, 32, 20)    |      1,220 | conv1d_3[0][0]    |
|---------------------+-------------------+------------+-------------------|
| conv1d_5 (Conv1D)   | (None, 16, 20)    |      1,220 | conv1d_4[0][0]    |
|---------------------+-------------------+------------+-------------------|
| get_item (GetItem)  | (None, 16, 10)    |          0 | conv1d_5[0][0]    |
|---------------------+-------------------+------------+-------------------|
| get_item_1          | (None, 16, 10)    |          0 | conv1d_5[0][0]    |
| (GetItem)           |                   |            |                   |
|---------------------+-------------------+------------+-------------------|
| sampling (Sampling) | (None, 16, 10)    |          0 | get_item[0][0],   |
|                     |                   |            | get_item_1[0][0]  |
+--------------------------------------------------------------------------+
 Total params: 6,220 (24.30 KB)
 Trainable params: 6,220 (24.30 KB)
 Non-trainable params: 0 (0.00 B)
Model: "decoder"
+--------------------------------------------------------------------------+
| Layer (type)                    | Output Shape           |       Param # |
…
